RewardPredictor(
  (image_encoder): ImageEncoder(
    (conv_layers): Sequential(
      (0): Conv2d(3, 4, kernel_size=(3, 3), stride=(2, 2))
      (1): ReLU()
      (2): Conv2d(4, 8, kernel_size=(3, 3), stride=(2, 2))
      (3): ReLU()
      (4): Conv2d(8, 16, kernel_size=(3, 3), stride=(2, 2))
      (5): ReLU()
      (6): Conv2d(16, 32, kernel_size=(3, 3), stride=(2, 2))
      (7): ReLU()
      (8): Conv2d(32, 64, kernel_size=(3, 3), stride=(2, 2))
      (9): ReLU()
    )
    (projection): Linear(in_features=64, out_features=64, bias=True)
  )
  (lstm_predictor): LSTMPredictor(
    (lstm): LSTM(64, 64, batch_first=True)
    (mlpk): ModuleDict(
      (agent_x): MLP(
        (mlp): Sequential(
          (0): Linear(in_features=64, out_features=32, bias=True)
          (1): ReLU()
          (2): Linear(in_features=32, out_features=32, bias=True)
          (3): ReLU()
          (4): Linear(in_features=32, out_features=1, bias=True)
        )
      )
      (agent_y): MLP(
        (mlp): Sequential(
          (0): Linear(in_features=64, out_features=32, bias=True)
          (1): ReLU()
          (2): Linear(in_features=32, out_features=32, bias=True)
          (3): ReLU()
          (4): Linear(in_features=32, out_features=1, bias=True)
        )
      )
      (target_x): MLP(
        (mlp): Sequential(
          (0): Linear(in_features=64, out_features=32, bias=True)
          (1): ReLU()
          (2): Linear(in_features=32, out_features=32, bias=True)
          (3): ReLU()
          (4): Linear(in_features=32, out_features=1, bias=True)
        )
      )
      (target_y): MLP(
        (mlp): Sequential(
          (0): Linear(in_features=64, out_features=32, bias=True)
          (1): ReLU()
          (2): Linear(in_features=32, out_features=32, bias=True)
          (3): ReLU()
          (4): Linear(in_features=32, out_features=1, bias=True)
        )
      )
    )
  )
)
[0.868s] step=0 loss=0.21477
[0.760s] step=1 loss=0.22636
[0.686s] step=2 loss=0.22572
[0.671s] step=3 loss=0.21851
[0.666s] step=4 loss=0.21521
[0.673s] step=5 loss=0.17029
[0.676s] step=6 loss=0.17320
[0.670s] step=7 loss=0.18673
[0.685s] step=8 loss=0.15861
[0.682s] step=9 loss=0.15291
[0.667s] step=10 loss=0.16244
[0.667s] step=11 loss=0.13750
…
